Assets/RollerAgent.onnx (onnx, 72959 bytes, 9 tensors)

network_body.observation_encoder.processors.0.normalizer.running_mean f4 [6]
0.13887297 0.12763336 0.09365 0.011391732 0.027601825 -0.038217805
00000000: b734 0e3e 52b2 023e 92cb bf3d 63a4 3a3c
00000010: 391d e23c 468a 1cbd

network_body._body_endoder.seq_layers.0.weight f4 [128, 6]
0.41645467 -0.43356916 0.10497918 0.16467978 -0.03875246 0.676461 0.3836669 0.37862962
0.16918203 1.0943896 0.25167814 0.009629044 0.08146807 -0.3121212 0.5002924 0.14322625
-0.5003762 -0.088286825 -0.053183213 0.20186248 -0.3528462 0.18931548 -0.25737926 -0.1314779
-0.21508424 0.16486585 -0.34168512 0.27871218 0.7420307 1.0604495 0.15930946 0.23089631
0.27849472 -0.06421591 -0.43877485 -0.09361888 0.6884558 0.65025675 0.27614167 -0.5479152
-0.421482 -0.29539624 0.309318 -0.59231985 -0.26110095 0.38545823 -0.07160681 0.24544483
0.19514178 0.17044654 -0.64772743 0.08567454 -0.32481253 1.084097 0.4340117 0.95945174
-0.29429245 -0.32406652 0.0012544256 0.6718133 -0.22547752 -0.1273315 -0.32333407 -0.28677458
0.5091575 0.32599035 0.12256977 0.8245707 -0.6103707 0.2818015 -0.44802773 0.26766843
-0.1968824 -0.848367 -0.17214057 0.5199327 -0.14016661 0.24064918 -0.24502715 0.2420379
0.49863198 -0.39974496 -0.68180907 0.38390115 0.1853433 0.3891861 -0.14679761 -0.33375356
0.38888124 -0.04729182 -0.2837002 -0.578253 -0.26958808 -0.3414234 0.237411 0.7533673
-0.41154608 0.26808596 -0.11773957 0.21659268 0.47451594 -0.1469011 0.2045221 -0.07235828
-0.8680772 -0.43791398 -0.3319332 -0.08850083 -0.29308796 -0.5368921 -0.0460081 -0.36131153
0.17892973 0.5078888 -0.17565228 -0.5463376 -0.05397745 0.20480733 -0.031078702 0.41203624
0.25310984 -0.14890799 -0.64642507 -0.026987791 -0.23473534 -0.57473856 -0.53114706 -0.33780992
-0.2517875 0.2511214 -0.09930868 0.416424 -0.1041686 -0.580302 -0.20034914 0.026716908
-0.119826846 0.11731722 -0.65635234 -0.21389756 -0.060603704 0.022721771 0.3102857 0.12576309
0.026966019 -0.884812 -0.0555932 -0.06263876 -0.7609751 0.7579599 -0.35227948 0.6614053
-0.49323043 -0.75143963 0.044747412 0.094131306 0.10054771 -0.33827865 -0.17011644 0.32245302
-0.2082474 0.20602365 0.009201876 -0.0474896 0.052284956 -0.2369288 -0.9417989 -0.078188404
0.3274291 -0.030287772 -0.38186312 0.8589519 -0.69944876 0.9267994 -0.85034305 -0.16157417
0.95951277 0.22084385 -0.35211724 0.9630732 0.22408475 -0.9320715 0.50422835 0.48944747
0.058230665 0.6975063 0.2271562 -0.23397969 -0.0040226574 0.44529292 0.5034894 -0.20124172
-0.8881513 0.43061557 0.11710516 -0.06509112 -0.06991064 -0.31026822 -0.118805274 -0.6639257
-0.12137445 -0.09170191 0.064369306 -0.6562747 0.626202 0.7734608 0.3211597 -0.19679083
0.27083656 0.24187815 -0.026592094 0.6809549 -0.06901702 -0.6155891 0.03702426 -0.3963062
-0.091255374 0.6277835 -0.085746564 0.15105486 0.07060692 -0.0008315371 0.09190781 0.5638629
-0.053554468 -0.3196175 0.2945736 -0.47675005 0.12832949 0.31513894 0.44118538 0.39509875
0.024192218 0.42576393 0.49117583 -0.20896187 0.27698255 0.21062247 -1.2145834 0.4668192
0.124602884 -0.31954923 -0.080949225 -0.22223869 0.324523 0.952285 -0.12799068 -0.108445115
0.33899286 1.2876285 0.13991697 0.021879468 0.37141702 0.38588062 -0.36501455 0.09782064
00000000: 8c39 d53e c7fc ddbe 53ff d63d d1a1 283e
00000010: e6ba 1ebd 8c2c 2d3f fd6f c43e bedb c13e
00000020: 0e3e 2d3e f514 8c3f f5db 803e 23c3 1d3c
00000030: bbd8 a63d 5ace 9fbe 2a13 003f e7a9 123e
00000040: a818 00bf b9cf b4bd a4d6 59bd 0ab5 4e3e
00000050: 42a8 b4be ebdb 413e 37c7 83be 25a2 06be
00000060: 0b3f 5cbe 98d2 283e 5af1 aebe 5db3 8e3e
00000070: b9f5 3d3f cfbc 873f 0522 233e 1570 6c3e
00000080: dc96 8e3e a283 83bd 19a7 e0be 41bb bfbd
00000090: a43e 303f 3a77 263f 7162 8d3e 2c44 0cbf
000000a0: 7dcc d7be 2d3e 97be ee5e 9e3e 46a2 17bf
000000b0: 06af 85be c85a c53e 97a6 92bd e455 7b3e
000000c0: 3fd3 473e 8a89 2e3e 77d1 25bf 2276 af3d
000000d0: d44d a6be b1c3 8a3f c836 de3e a19e 753f
000000e0: 80ad 96be 0cec a5be 8a6b a43a f5fb 2b3f
000000f0: 94e3 66be 3063 02be 0b8c a5be 1ed4 92be
00000100: 2558 023f 35e8 a63e dc05 fb3d 1117 533f
00000110: 4141 1cbf 4948 903e e463 e5be d60b 893e
00000120: 8a9b 49be 942e 59bf 9e45 30be 4f1a 053f
00000130: d687 0fbe bd6c 763e 66e8 7abe c9d8 773e
00000140: b14c ff3e 5fab ccbe 0a8b 2ebf b18e c43e
00000150: a2ca 3d3e 6743 c73e 1d52 16be bfe1 aabe
00000160: 711b c73e 11b5 41bd 2741 91be 6308 14bf
00000170: 7307 8abe 0ccf aebe df1b 733e aedc 403f
00000180: 2bb6 d2be 9042 893e 7221 f1bd 79ca 5d3e
00000190: c1f3 f23e 3e6d 16be 3e6e 513e 9430 94bd
000001a0: 4f3a 5ebf 4336 e0be 26f3 a9be ec3f b5bd
000001b0: a00f 96be c371 09bf fd72 3cbd d3fd b8be
000001c0: 5b39 373e 0005 023f 31de 33be c8dc 0bbf
000001d0: 7517 5dbd 03b9 513e c398 febc 6af6 d23e
000001e0: 9d97 813e 567b 18be 1d7c 25bf 8015 ddbc
000001f0: 765e 70be 1122 13bf 41f9 07bf 6cf5 acbe
00000200: 4bea 80be fc92 803e 5962 cbbd 8735 d53e
00000210: 5956 d5bd ac8e 14bf 5328 4dbe 6bdd da3c
00000220: c767 f5bd 0344 f03d b506 28bf f607 5bbe
00000230: 973b 78bd 0223 ba3c c4dd 9e3e 0ac8 003e
00000240: d7e7 dc3c 0a83 62bf b2b5 63bd c048 80bd
00000250: 44cf 42bf a909 423f fa5d b4be dc51 293f
00000260: b388 fcbe 595e 40bf 1049 373d eac7 c03d
00000270: f5eb cd3d dc32 adbe 0133 2ebe 9018 a53e
00000280: ce3e 55be ddf7 523e 77c3 163c 7484 42bd
00000290: c028 563d 779d 72be bc19 71bf 3e21 a0bd
000002a0: c9a4 a73e 101e f8bc 9083 c3be 46e4 5b3f
000002b0: 130f 33bf ba42 6d3f 15b0 59bf b373 25be
000002c0: a1a2 753f e424 623e b648 b4be f78b 763f
000002d0: 7976 653e 3d9c 6ebf 1c15 013f dc98 fa3e
000002e0: 4783 6e3d c68f 323f a39b 683e 5f98 6fbe
000002f0: 7fd0 83bb 6ffd e33e aee4 003f 4f12 4ebe
00000300: e25d 63bf a579 dc3e d5d4 ef3d 7e4e 85bd
00000310: 4f2d 8fbd 7adb 9ebe 2e50 f3bd 09f7 29bf
00000320: 2b93 f8bd 36ce bbbd 0ed4 833d 9e01 28bf
00000330: c64e 203f 8701 463f 0b6f a43e 8983 49be
00000340: 17ab 8a3e e8ae 773e aad7 d9bc 0f53 2e3f
00000350: cc58 8dbd 3f97 1dbf c0a6 173d a5e8 cabe
00000360: 19e4 babd 6bb6 203f e59b afbd 20ae 1a3e
00000370: 5c9a 903d 83fb 59ba 293a bc3d 5259 103f
00000380: ee5b 5bbd e8a4 a3be 5ad2 963e 9518 f4be
00000390: ce68 033e e459 a13e 0de3 e13e 624a ca3e
000003a0: c22e c63c bbfd d93e 667b fb3e 1afa 55be
000003b0: a8d0 8d3e 6bad 573e 7877 9bbf ed02 ef3e
000003c0: cc2f ff3d f59b a3be b5c8 a5bd 8a92 63be
000003d0: e127 a63e f3c8 733f fd0f 03be 7918 debd
000003e0: 7990 ad3e 03d1 a43f 6546 0f3e 923c b33c
000003f0: 5f2a be3e 2592 c53e 30e3 babe 3056 c83d

network_body._body_endoder.seq_layers.0.bias f4 [128]
0.014781067 -0.017996978 -0.028855415 -0.0021781262 -0.0019600138 0.023546254 0.07795005 0.04462838
0.032948438 -0.057333197 -0.038407262 0.043701157 0.025467435 0.04166303 -0.12770565 0.001166879
0.05193393 0.02811325 -0.08277098 0.009188472 0.026458973 0.007699439 -0.033357143 0.0450477
0.002808143 0.12922618 -0.028829185 0.06554297 -0.013359653 -0.023997108 0.0059753484 -0.054541815
0.073075816 -0.0016679934 -0.11872873 0.17868264 -0.027667463 0.06421542 -0.14920667 0.066807725
-0.10304529 0.035451863 -0.0193852 0.079029754 -0.02684557 0.05677952 -0.05395721 0.06354508
0.089899726 0.11234082 -0.09384634 0.04968043 -0.04302445 -0.09647062 0.012462909 0.08513964
0.033742346 0.06691859 0.054771043 0.04133491 -0.04626739 0.029043451 -0.05819156 0.027822455
0.010980609 0.006531004 -0.012446826 0.044597004 0.04129251 0.12529908 -0.020974515 0.035601653
0.09856105 0.035703637 -0.0155794285 -0.1746442 -0.002840524 -0.037122495 0.053183187 0.0029279015
-0.022404306 0.08972186 0.056264132 0.082046196 0.040890634 0.042203482 0.0066622063 0.027590215
-0.026418746 0.009514413 -0.0338377 0.06334823 0.05469316 0.0770679 -0.025702303 0.055402085
-0.050405297 -0.051418226 0.09778361 0.020169066 0.12565771 -0.059476793 0.086629696 0.08825598
0.03269355 0.101379275 -0.030721208 0.019211937 0.097117856 0.08483942 -0.023595806 0.046066478
-0.060235854 0.109568894 0.107566595 0.100100085 0.11384155 0.0137029 -0.16663752 0.012166268
-0.11481936 -0.029541904 0.05816483 0.0020027058 -0.017728135 0.060224295 0.079863094 -0.018047214
00000000: 4a2c 723c 666e 93bc 3162 ecbc e5be 0ebb
00000010: 9373 00bb 13e4 c03c 47a4 9f3d 40cc 363d
00000020: f1f4 063d 37d6 6abd ef50 1dbd fcff 323d
00000030: 15a1 d03c daa6 2a3d 45c5 02be f6f1 983a
00000040: acb8 543d c24d e63c d583 a9bd 3f8b 163c
00000050: 7dc0 d83c 934b fc3b 80a1 08bd f083 383d
00000060: d208 383b de53 043e 2f2b ecbc 653b 863d
00000070: 72e2 5abc 9595 c4bc dbcc c33b 3d67 5fbd
00000080: c6a8 953d 92a0 daba 0c28 f3bd 95f8 363e
00000090: e0a6 e2bc 6083 833d a2c9 18be 7dd2 883d
000000a0: 6909 d3bd f935 113d b6cd 9ebc 5ada a13d
000000b0: 3eeb dbbc a491 683d 3c02 5dbd ec23 823d
000000c0: 591d b83d f212 e63d 8332 c0bd b57d 4b3d
000000d0: 683a 30bd 6392 c5bd 3b31 4c3c b15d ae3d
000000e0: 6a35 0a3d 9d0c 893d 9a57 603d cb4e 293d
000000f0: e082 3dbd 88ec ed3c 465a 6ebd ebeb e33c
00000100: 03e8 333c 0802 d63b c6ed 4bbc 59ab 363d
00000110: 5622 293d 674e 003e bfd2 abbc 0ad3 113d
00000120: 60da c93d fa3d 123d dc40 7fbc eed5 32be
00000130: 1628 3abb c20d 18bd 9dd6 593d 09e2 3f3b
00000140: 3c89 b7bc 18c0 b73d 3875 663d d607 a83d
00000150: f07c 273d 8fdd 2c3d a34e da3b e004 e23c
00000160: 206c d8bc 57e2 1b3c 6699 0abd b8bc 813d
00000170: ef05 603d c6d5 9d3d a38d d2bc 4ced 623d
00000180: c975 4ebd eb9b 52bd c642 c83d 9939 a53c
00000190: 6aac 003e f09d 73bd e96a b13d 8dbf b43d
000001a0: ace9 053d f09f cf3d 0bab fbbc 5a62 9d3c
000001b0: bae5 c63d 4ac0 ad3d fe4b c1bc 34b0 3c3d
000001c0: dfb9 76bd a865 e03d e04b dc3d 4601 cd3d
000001d0: c225 e93d 2182 603c 07a3 2abe 0755 473c
000001e0: 6a26 ebbd dd01 f2bc 3f3e 6e3d d43f 033b
000001f0: 983a 91bc c0ad 763d 438f a33d c0d7 93bc

network_body._body_endoder.seq_layers.2.weight f4 [128, 128]
-0.16139443 -0.03222832 0.00825562 -0.24841267 0.2166459 0.0057372977 -0.109001525 -0.08202123
-0.40491727 0.09270677 0.1138577 -0.032367118 -0.052699577 -0.036756124 -0.021839052 -0.014284634
0.03169461 0.035401244 -0.103561185 -0.17492759 0.037501525 -0.0066540274 -0.089830354 0.2238151
-0.09185439 -0.07284605 -0.21728413 -0.011755088 -0.16206303 0.050410163 -0.12541829 -0.10731372
0.079667956 0.16291642 -0.051143315 0.1081721 -0.006945004 0.07237649 -0.07655359 -0.05105894
0.03801342 -0.19458628 0.070956856 -0.036634438 -0.1420388 0.2245065 -0.25063646 -0.044265132
0.120083936 0.026948523 0.0015718725 -0.1331412 0.10704145 0.0016504733 -0.053180873 0.01869798
-0.050425556 0.14758825 0.13937815 0.19743022 0.015712969 -0.0948426 0.013705274 -0.020667002
0.05560423 -0.035468865 0.08366876 -0.15157317 0.1857888 -0.018267862 -0.04437107 -0.024340527
-0.05881662 0.1112342 -0.11480289 -0.014611505 0.0053777467 0.13104832 -0.111645624 -0.12902111
-0.19957478 0.053181387 -0.08425 -0.2705576 0.092959955 -0.048237804 -0.0042019743 0.08516835
-0.073739894 -0.28656942 0.07300904 0.16036008 0.12506476 -0.021850495 -0.020265771 -0.14688022
-0.0024395082 0.12259256 0.007374672 0.093548976 0.13564567 0.08995999 0.019249642 0.0691466
-0.03249939 0.205339 0.0309879 0.027756145 0.20636325 -0.14817764 -0.07822613 -0.106647015
0.10995991 0.0896556 0.013649079 0.21342555 -0.0325464 -0.07319354 -0.14054269 -0.08459009
0.1478848 -0.005020309 0.07963387 -0.1827189 -0.02736322 0.19111829 -0.14660801 0.0018696277
0.04086302 0.10876532 0.09845115 -0.02310479 -0.021925695 0.029182812 -0.09034625 0.2820839
0.16225593 0.15239581 0.09647988 0.04596913 0.24901833 -0.1063081 0.0076396153 0.17910117
-0.27645448 -0.041017137 0.1367011 0.11483017 0.04533394 0.100515224 -0.039921336 -0.10506477
-0.08193849 -0.11770173 0.05840308 0.066668555 0.032999847 -0.23666617 0.095540605 0.08792902
-0.07825063 -0.10792762 -0.036680523 -0.20094939 -0.021006843 -0.053009875 -0.14532554 0.04951752
0.087693974 -0.08457007 0.013981202 -0.04497187 -0.12342498 -0.036365777 -0.038813133 0.030217862
0.0924129 -0.039153192 -0.07752237 0.06975924 0.073579825 -0.012211256 0.0016301643 -0.15534389
0.16181217 -0.024499103 0.092620574 -0.12097771 0.09847128 -0.0065030027 -0.15869689 -0.16978756
-0.041285947 0.12490295 -0.07593732 0.00409785 -0.01558867 -0.08956903 0.019025574 0.16122162
-0.010919229 -0.09394836 0.26314163 0.012319701 -0.031646486 0.24760278 0.0844125 -0.005634334
0.118857294 0.016228756 0.0064802417 -0.03389311 -0.039038297 0.02023741 0.061666336 0.03229264
0.0015636687 -0.041057825 -0.08257212 -0.10838605 -0.19152583 -0.07398821 -0.051107444 -0.03993455
-0.053600337 0.21424012 -0.115477584 -0.14325866 -0.18517633 -0.11668 0.13727157 -0.033915784
0.1768088 0.003571825 0.14407162 0.03616921 0.010763491 -0.07595125 0.06323345 0.084403515
-0.023329545 -0.019741833 -0.10064684 -0.0139170205 -0.28409204 -0.0859023 -0.08687982 0.0044358335
0.08159333 0.25716385 0.074818335 0.070181176 -0.15640524 -0.11480385 -0.0479127 0.079076916
00000000: 9544 25be d801 04bd 9442 073c e45f 7ebe
00000010: 6cd8 5d3e f1ff bb3b 313c dfbd bffa a7bd
00000020: 5151 cfbe 0cdd bd3d 3a2e e93d 6293 04bd
00000030: 83db 57bd 978d 16bd d0e7 b2bc 190a 6abc
00000040: 35d2 013d e500 113d e317 d4bd 3820 33be
00000050: 339b 193d 070a dabb faf8 b7bd c92f 653e
00000060: 281e bcbd 4f30 95bd bb7f 5ebe 6a98 40bc
00000070: daf3 25be e37a 4e3d a76d 00be 4cc7 dbbd
00000080: f428 a33d 90d3 263e a77b 51bd 5589 dd3d
00000090: eb92 e3bb 203a 943d 21c8 9cbd 2e23 51bd
000000a0: f6b3 1b3d a041 47be d451 913d fe0d 16bd
000000b0: 9f72 11be 08e5 653e 6c53 80be 5b4f 35bd
000000c0: 91ee f53d 26c3 dc3c 4a07 ce3a 2b56 08be
000000d0: 8c38 db3d b254 d83a 30d4 59bd 822c 993c
000000e0: 078b 4ebd 6021 173e 25b9 0e3e 262b 4a3e
000000f0: 7cb8 803c d63c c2bd 168c 603c d84d a9bc
00000100: 43c1 633d cd47 11bd 875a ab3d ff35 1bbe
00000110: 6b3f 3e3e 7ca6 95bc 70be 35bd c965 c7bc
00000120: b2e9 70bd c2ce e33d c71d ebbd 1865 6fbc
00000130: cf37 b03b 8831 063e 76a6 e4bd 1c1e 04be
00000140: 555d 4cbe bad4 593d 448b acbd 8786 8abe
00000150: ca61 be3d 0195 45bd b7b0 89bb be6c ae3d
00000160: f104 97bd 3ab9 92be c385 953d 6f35 243e
00000170: fa10 003e cfff b2bc 6704 a6bc c567 16be
00000180: 28e0 1fbb cf11 fb3d 3ca7 f13b 9b96 bf3d
00000190: b3e6 0a3e f13c b83d 6db1 9d3c bc9c 8d3d
000001a0: 151e 05bd 6344 523e 56da fd3c db60 e33c
000001b0: e350 533e e1bb 17be 0535 a0bd c069 dabd
000001c0: a932 e13d 5b9d b73d 63a0 5f3c 3a8c 5a3e
000001d0: 604f 05bd 7fe6 95bd 6cea 0fbe 923d adbd
000001e0: 1d6f 173e 6781 a4bb 1517 a33d aa1a 3bbe
000001f0: d528 e0bc 83b4 433e 6920 16be 4c0e f53a
00000200: fb5f 273d 5ac0 de3d c2a0 c93d 4246 bdbc
00000210: 849d b3bc cb10 ef3c 7407 b9bd 4d6d 903e
00000220: 6b26 263e a60d 1c3e 3e97 c53d 204a 3c3d
00000230: a9fe 7e3e 10b8 d9bd bd55 fa3b 4c66 373e
00000240: 718b 8dbe 9601 28bd 60fb 0b3e 152c eb3d
00000250: 15b0 393d edda cd3d 8e84 23bd 332c d7bd
00000260: 5ecf a7bd 9b0d f1bd 1138 6f3d 8689 883d
00000270: d92a 073d 9e58 72be cbaa c33d 2114 b43d
00000280: de41 a0bd 2809 ddbd 513e 16bd adc5 4dbe
00000290: 8b16 acbc e220 59bd 38d0 14be e2d2 4a3d
000002a0: e698 b33d 1333 adbd 6911 653c 6c34 38bd
000002b0: 3cc6 fcbd 48f4 14bd 85fa 1ebd 738b f73c
000002c0: f942 bd3d 195f 20bd 0cc4 9ebd efdd 8e3d
000002d0: 05b1 963d b811 48bc 3dab d53a 7812 1fbe
000002e0: 17b2 253e 58b2 c8bc dbaf bd3d 29c3 f7bd
000002f0: 4fab c93d 2417 d5bb 7081 22be cadc 2dbe
00000300: 741b 29bd 1ecd ff3d 0785 9bbd 4247 863b
00000310: 9f67 7fbc f86f b7bd 85db 9b3c 4817 253e
00000320: 91e6 32bc ff67 c0bd 80ba 863e 92d8 493c
00000330: bf9f 01bd 958b 7d3e 76e0 ac3d 38a0 b8bb
00000340: 746b f33d 2bf2 843c 3558 d43b 80d3 0abd
00000350: 9fe6 1fbd edc8 a53c d795 7c3d 4a45 043d
00000360: 04f4 cc3a 402c 28bd 921b a9bd 81f9 ddbd
00000370: 591f 44be 2187 97bd 0a56 51bd 6992 23bd
00000380: 078c 5bbd c361 5b3e 837f ecbd 66b2 12be
00000390: dd9e 3dbe edf5 eebd eb90 0c3e 47eb 0abd
000003a0: 5e0d 353e 4815 6a3b 8387 133e 2a26 143d
000003b0: 5a59 303c 548c 9bbd 8a80 813d c0db ac3d
000003c0: 9a1d bfbc a0b9 a1bc ee1f cebd 3704 64bc
000003d0: 8374 91be 8ced afbd 0cee b1bd 785a 913b
000003e0: 671a a73d fbaa 833e 5b3a 993d 26bb 8f3d
000003f0: b228 20be 481e ebbd 1b40 44bd 14f3 a13d

network_body._body_endoder.seq_layers.2.bias f4 [128]
0.036651436 0.030768655 0.09042643 0.02597448 0.021116635 0.09412793 0.09902571 0.005901072
0.04966389 0.076379046 0.014545296 0.1163114 0.018771574 -0.023779426 -0.08457307 0.07664179
-0.012588732 0.0021058687 0.08536489 0.11016471 -0.025053725 0.036415443 0.06615535 0.17862245
0.15002365 0.015965404 0.0641002 0.104516834 0.06492689 0.071823046 0.0860381 0.02318622
-0.008860321 0.061065555 0.04135444 0.036036093 -0.024246544 -0.008950091 0.15524684 0.016632387
0.04373012 0.1487467 0.032845568 -0.0010250139 0.035147503 0.11713331 -0.11446059 0.005013882
0.070817254 0.09838257 0.09866158 -0.12583956 0.017746685 -0.035946522 0.089517325 0.061437663
-0.004963123 -0.08451962 -0.038991358 0.104868166 -0.009952935 0.015053271 0.082417145 0.057307597
0.009805865 0.045692217 0.0674175 0.08307267 0.19899364 0.01837438 0.024960458 0.1001774
0.03781408 0.04681333 0.039258137 0.05802828 0.09520804 -0.10050236 -0.017804265 0.14166623
-0.035575073 0.01710638 0.03535305 0.0032750631 0.022991741 0.010911356 -0.002696547 -0.04091956
0.033110585 0.026855346 0.1060955 -0.003230285 0.04799682 -0.0110216 0.006873052 -0.11047454
0.012685015 0.08552336 -0.058852963 0.040565785 0.1657793 0.12283214 -0.03401594 0.058493245
0.077455334 0.104959145 -0.023009285 0.024949705 -0.026630862 0.04042465 0.11657035 0.090699024
-0.030372849 0.013807818 0.05945214 -0.03606727 0.040280547 0.030154074 -0.0064170384 0.10511412
-0.01269249 0.10022686 0.062364053 0.046374172 0.10681421 0.063414246 0.016764121 -0.006773466
00000000: d11f 163d 8c0e fc3c 7e31 b93d 6fc8 d43c
00000010: cbfc ac3c 25c6 c03d fecd ca3d c85d c13b
00000020: 5d6c 4b3d 9e6c 9c3d 654f 6e3c ac34 ee3d
00000030: d8c6 993c 12cd c2bc a534 adbd 5ff6 9c3d
00000040: f840 4ebc 9d02 0a3b cad3 ae3d 099e e13d
00000050: 783d cdbc 5c28 153d 757c 873d cee8 363e
00000060: cd9f 193e e1c9 823c f746 833d ec0c d63d
00000070: 64f8 843d f617 933d be34 b03d 07f1 bd3c
00000080: e12a 11bc e01f 7a3d 4663 293d 959a 133d
00000090: b0a0 c6bc 67a3 12bc 07f9 1e3e a540 883c
000000a0: 5b1e 333d 0e51 183e 1389 063d c259 86ba
000000b0: d4f6 0f3d 97e3 ef3d 506a eabd 7e4b a43b
000000c0: a308 913d cd7c c93d 150f ca3d 16dc 00be
000000d0: 7f61 913c a93c 13bd dc54 b73d 0fa6 7b3d
000000e0: b1a1 a2bb 9f18 adbd 67b5 1fbd 1fc5 d63d
000000f0: a311 23bc ffa1 763c 52ca a83d 5fbb 6a3d
00000100: c7a8 203c c327 3b3d 3012 8a3d 0122 aa3d
00000110: fdc4 4b3e de85 963c e079 cc3c cf29 cd3d
00000120: f0e2 1a3d 56bf 3f3d 24cd 203d 10af 6d3d
00000130: 6ffc c23d 2ed4 cdbd 40da 91bc f410 113e
00000140: 2bb7 11bd ae22 8c3c 5cce 103d 71a2 563b
00000150: 2d59 bc3c 8bc5 323c 8db8 30bb 459b 27bd
00000160: f79e 073d beff db3c 9948 d93d 30b3 53bb
00000170: 5098 443d f193 34bc 5737 e13b 7a40 e2bd
00000180: cfd4 4f3c df26 af3d ce0f 71bd 4f28 263d
00000190: 0cc2 293e 6b8f fb3d 4c54 0bbd 9d96 6f3d
000001a0: e7a0 9e3d d2f4 d63d f87d bcbc 5363 cc3c
000001b0: f728 dabc 5194 253d 70bc ee3d 69c0 b93d
000001c0: 7bd0 f8bc 303a 623c 1684 733d 46bb 13bd
000001d0: 37fd 243d ad05 f73c 0546 d2bb 1246 d73d
000001e0: 29f4 4fbc bd43 cd3d 7371 7f3d d8f2 3d3d
000001f0: 69c1 da3d 54df 813d e954 893c f3f3 ddbb

action_model._continuous_distribution.log_sigma f4 [1, 2]
-0.419564 -0.4655194
00000000: 18d1 d6be 8f58 eebe

action_model._continuous_distribution.mu.weight f4 [2, 128]
-0.06307377 0.046976242 -0.12237306 -0.07806483 -0.019786783 -0.12356384 -0.025581233 0.08639381
-0.09974908 0.12515001 0.07178793 -0.029225554 0.024914416 0.064657174 -0.00802248 0.15712684
0.11033137 -0.06449307 0.09257945 0.13762634 -0.033159148 0.08389576 0.10626563 -0.15164226
-0.00604944 -0.08246881 0.028372336 -0.07096473 0.091581576 -0.011668299 -0.10540043 -0.062237944
-0.09953692 -0.078697465 0.06872175 -0.08549647 -0.07983678 0.0068918895 -0.061186507 0.032285582
0.10590518 0.011947756 0.079504125 0.06262416 0.07552294 -0.03164002 -0.026851512 0.0798444
0.027803836 -0.050544653 -0.123520456 0.0031511679 -0.09854312 -0.018883025 -0.10815789 -0.06572215
0.088102445 0.039420146 -0.03424803 -0.0064428435 -0.0134834675 -0.08460889 -0.10157528 -0.10736491
-0.0539627 -0.07331417 -0.11072204 0.016247211 -0.049070902 -0.105385415 -0.12248152 -0.036097907
0.123914905 -0.09777957 -0.10231467 0.16278134 -0.19522431 0.014511522 0.06363438 -0.06436778
0.03600262 0.08488258 0.08101091 -0.089374624 -0.13681379 0.087534145 -0.027442522 0.021560878
0.019211572 0.02378973 -0.11943409 0.12732098 0.0041368566 0.09841303 -0.09035244 0.006071052
0.10020349 0.06818456 -0.01090245 -0.0648384 -0.013304119 0.018521987 0.07380361 -0.13770673
-0.11855439 0.13897513 0.06877636 -0.08429229 -0.04859802 -0.031081492 0.004190878 -0.009261385
-0.020864094 -0.015304202 0.12661691 0.06057376 0.0033985565 -0.0270682 0.086630136 0.011295775
0.077048376 0.03408955 0.14425272 -0.10954383 0.14652404 -0.11040914 0.10761415 -0.12816751
0.047512904 -0.13833326 0.0037313767 -0.13491002 -0.14497906 0.03794784 0.05831318 -0.08794378
-0.01893502 0.038121566 0.040878057 0.068763144 0.00961827 -0.025569003 -0.05216148 -0.00859424
0.010423358 -0.018927649 0.061781954 0.061382033 -0.083861716 0.04213299 0.0046289326 0.13184027
0.105519585 0.0020234773 0.055353906 0.052009 0.0958005 0.042101882 0.041016802 0.05411285
-0.064614244 -0.14633356 -0.07328484 0.034466505 -0.0332222 -0.0045867967 0.14246055 -0.08901147
0.018277772 0.11561461 0.007576337 -0.08014959 0.005152994 0.079338685 -0.03972213 -0.019014167
0.04258764 0.0851184 0.0128636295 -0.051388957 -0.13195062 0.020070186 0.015165069 0.05749156
0.025130883 -0.031539764 -0.078983955 0.05252204 -0.09238849 -0.10540283 0.028584741 0.02897855
0.019268367 0.061391555 -0.0058701565 0.069502816 0.13098358 -0.067240015 -0.07491244 0.074913524
0.009726574 -0.029230975 -0.043772068 -0.02338322 0.012164755 -0.03204065 0.013784777 0.11539411
0.0008834727 0.008313446 0.004393347 -0.009606402 -0.05351932 -0.11254134 -0.10832772 -0.061136547
0.020518368 -0.12316623 0.068592936 0.011689238 0.046425506 -0.010852527 -0.049025025 -0.03680775
0.030706787 0.035765044 -0.07762601 0.020434024 0.11049315 0.09714948 -0.07213493 -0.052679803
0.003223767 0.0116236005 0.010193954 -0.06831566 -0.052207332 -0.11663765 0.05708952 0.077469885
-0.042418867 -0.11590692 0.02453698 -0.079654 -0.101464644 -0.15575662 -0.09924763 0.078249045
0.03814564 0.06746377 0.046662882 0.008832793 0.016795486 0.0024806052 0.014822863 -0.06999815
00000000: d22c 81bd 296a 403d ba9e fabd 74e0 9fbd
00000010: e417 a2bc 0a0f fdbd bc8f d1bc 3def b03d
00000020: 3f49 ccbd 5327 003e 8d05 933d 6e6a efbc
00000030: 5119 cc3c fb6a 843d b870 03bc dce5 203e
00000040: 6af5 e13d f114 84bd 4b9a bd3d ebed 0c3e
00000050: e3d1 07bd 8ad1 ab3d cba1 d93d 1c48 1bbe
00000060: 613a c6bb 68e5 a8bd 1a6d e83c f555 91bd
00000070: 1f8f bb3d 652c 3fbc 2edc d7bd 37ed 7ebd
00000080: 03da cbbd 232c a1bd fdbd 8c3d c618 afbd
00000090: 7781 a3bd 5cd5 e13b b49e 7abd e33d 043d
000000a0: d1e4 d83d 85c0 433c 0fd3 a23d 1841 803d
000000b0: c5ab 9a3d f798 01bd b4f7 dbbc 7685 a33d
000000c0: dfc4 e33c e907 4fbd 4bf8 fcbd d383 4e3b
000000d0: fad0 c9bd 93b0 9abc e281 ddbd 5699 86bd
000000e0: 0e6f b43d 0577 213d aa47 0cbd 7d1e d3bb
000000f0: c3e9 5cbc 6d47 adbd b306 d0bd 22e2 dbbd
00000100: fe07 5dbd bd25 96bd 3dc2 e2bd df18 853c
00000110: 92fe 48bd 4fd4 d7bd 97d7 fabd 66db 13bd
00000120: 19c7 fd3d a840 c8bd 5b8a d1bd 27b0 263e
00000130: e2e8 47be bcc1 6d3c be52 823d 41d3 83bd
00000140: 7c77 133d ebd6 ad3d 0ce9 a53d 0b0a b7bd
00000150: ea18 0cbe 1a45 b33d 24cf e0bc 70a0 b03c
00000160: 9661 9d3c aee2 c23c dc99 f4bd 6e60 023e
00000170: 788e 873b c58c c93d b30a b9bd adef c63b
00000180: 7d37 cd3d 59a4 8b3d 31a0 32bc ffc9 84bd
00000190: 85f9 59bc 6cbb 973c 5926 973d fe02 0dbe
000001a0: a5cc f2bd 7f4f 0e3e 9fda 8c3d 70a1 acbd
000001b0: b80e 47bd 9d9e febc a253 893b 10bd 17bc
000001c0: 2deb aabc 7abe 7abc dda7 013e 311c 783d
000001d0: 51ba 5e3b 21be ddbc 246b b13d ea11 393c
000001e0: 8acb 9d3d 7ca1 0b3d fcb6 133e 8458 e0bd
000001f0: 660a 163e 301e e2bd cf64 dc3d 583e 03be
00000200: e49c 423d 3ca7 0dbe 1d8a 743b da25 0abe
00000210: 6475 14be 326f 1b3d cdd9 6e3d de1b b4bd
00000220: 9d1d 9bbc 5c25 1c3d c06f 273d b1d3 8c3d
00000230: f395 1d3c 1676 d1bc 47a7 55bd dbce 0cbc
00000240: bbc6 2a3c 280e 9bbc 130f 7d3d ba6b 7b3d
00000250: b1bf abbd a493 2c3d 4dae 973b 2301 073e
00000260: a71a d83d 519c 043b c7ba 623d 6407 553d
00000270: 0d33 c43d 0673 2c3d 3c01 283d 70a5 5d3d
00000280: 7954 84bd 77d8 15be 5d16 96bd c02c 0d3d
00000290: 0014 08bd d74c 96bb 2ee1 113e a54b b6bd
000002a0: 44bb 953c 5ac7 ec3d ec42 f83b 7825 a4bd
000002b0: 72da a83b 527c a23d acb3 22bd 99c3 9bbc
000002c0: 6170 2e3d 8e52 ae3d f9c1 523c 3a7d 52bd
000002d0: 101e 07be 3b6a a43c e976 783c 457c 6b3d
000002e0: 48df cd3c d72f 01bd 57c2 a1bd 5a21 573d
000002f0: 2d36 bdbd 70dd d7bd 8c2a ea3c 6d64 ed3c
00000300: b2d8 9d3c b675 7b3d 715a c0bb 7e57 8e3d
00000310: 8f20 063e 22b5 89bd b16b 99bd 436c 993d
00000320: 355c 1f3c cc75 efbc 574a 33bd 2b8e bfbc
00000330: ae4e 473c 0e3d 03bd 8cd9 613c bf53 ec3d
00000340: d998 673a 1f35 083c 11f6 8f3b 2c64 1dbc
00000350: 1337 5bbd 137c e6bd ecda ddbd 516a 7abd
00000360: 2316 a83c 943e fcbd 747a 8c3d 3884 3f3c
00000370: ac28 3e3d ccce 31bc 77ce 48bd b9c3 16bd
00000380: cd8c fb3c 5e7e 123d 63fa 9ebd 4165 a73c
00000390: 3c4a e23d 4ef6 c63d 7abb 93bd c7c6 57bd
000003a0: d645 533b ea70 3e3c 8b04 273c 15e9 8bbd
000003b0: 5bd7 55bd b8df eebd b3d6 693d 88a8 9e3d
000003c0: 68bf 2dbd 9b60 edbd c701 c93c a321 a3bd
000003d0: b2cc cfbd aa7e 1fbe 5742 cbbd 0941 a03d
000003e0: 9a3e 1c3d 722a 8a3d 9421 3f3d 6bb7 103c
000003f0: b096 893c a691 223b 98db 723c 315b 8fbd

action_model._continuous_distribution.mu.bias f4 [2]
-0.037987743 0.09722499
00000000: 0999 1bbd e51d c73d

50 f4 [6]
2.423799 2.4332144 2.1487954 2.1584044 2.5225806 2.5952644
00000000: 861f 1b40 c9b9 1b40 dd85 0940 4c23 0a40
00000010: f671 2140 d018 2640
